week_11 Deep Learning/cifar_net.pth (torch, 251167 bytes, 10 tensors)

conv1.weight f4 [6, 3, 5, 5]
0	0xbe05c6f2	-0.13064173
1	0xbe40e11e	-0.18835875
2	0xbe46e0e1	-0.19421722
3	0xbe08102b	-0.13287418
4	0xbe69431a	-0.22779503
5	0xbe886327	-0.26638147
6	0xbe87d991	-0.26533177
7	0xbe8d036e	-0.2754168
8	0xbea4f101	-0.3221512
9	0xbe8693fc	-0.26284778
10	0xbe04344d	-0.12910576
11	0xbdedad51	-0.11605323
12	0xbe1ec358	-0.15504205
13	0xbddf4756	-0.10902278
14	0xbe614e65	-0.22002561
15	0xbeb6b5f1	-0.35685685
16	0xbe80ced8	-0.2515781
17	0xbdf19980	-0.11796856
18	0xbe0d995b	-0.13828032
19	0xbe877393	-0.26455364
20	0xbe10b18d	-0.1413023
21	0xbe3d1097	-0.1846336
22	0xbe15bd73	-0.1462305
23	0xbe4bb5ed	-0.19893618
24	0xbe7a3ae5	-0.24436529
25	0xbd54a591	-0.05191571
26	0x3dc57d0a	0.0964299
27	0x3e2b8b7f	0.16752432
28	0x3dc505d9	0.09620256
29	0x3d3a40e9	0.04547206
30	0x3d49b364	0.049243346
31	0x3c8db938	0.017300233
32	0x3c87f19c	0.0165947
33	0x3d314901	0.043282513
34	0x3d2b0a53	0.041757893
35	0x3dc904b0	0.09815347
36	0x3de449e0	0.11146903
37	0x3e41a0b5	0.18908961
38	0x3e1a50e0	0.15069914
39	0x3ddb1cba	0.106988385
40	0x3d1928b0	0.03739232
41	0xbd451937	-0.04811975
42	0x3e44100e	0.1914675
43	0x3e0edbf7	0.13951097
44	0x3d9c5b7b	0.07634636
45	0xbd4b7e55	-0.049681026
46	0xbd7d0261	-0.061769847
47	0xbd48e640	-0.04904771
48	0x3d307bbb	0.04308675
49	0x3c1dbad8	0.009627067
50	0x3c61292a	0.013742724
51	0x3cfad31d	0.030618245
52	0x3e7cdf10	0.24694467
53	0x3e1920a9	0.14953865
54	0x3e75e8f9	0.24014653
55	0x3df57e7b	0.11987015
56	0x3e16f584	0.14742094
57	0x3ea55b03	0.32296
58	0x3ead49c7	0.3384535
59	0x3dcfe979	0.10151953
60	0x3d6a83e2	0.05725468
61	0x3ea640cd	0.32471314
62	0x3ea3333e	0.31875032
63	0x3e7ef331	0.24897458
64	0x3e112b81	0.14176752
65	0x3db46d07	0.08809858
66	0x3ced41de	0.028962072
67	0x3e6bcbf2	0.23027018
68	0x3e97ec25	0.2967235
69	0x3e4f765b	0.20259993
70	0xbe6e56a4	-0.23275238
71	0xb971b748	-0.00023051829
72	0x3cfb94c2	0.030710582
73	0x3d0bbf02	0.034117706
74	0xbd114391	-0.035464827
75	0x3e86a4c7	0.2629759
76	0x3c6c3497	0.014416835
77	0xbe17bd8f	-0.14818405
78	0x3d9aade3	0.075526975
79	0x3e1726c7	0.14760886
80	0xbda5df79	-0.08099265
81	0xbe969247	-0.29408476
82	0xbda83024	-0.08212307
83	0x3e6edba2	0.23325971
84	0x3df12ee6	0.11776523
85	0xbe9c94f9	-0.30582407
86	0xbe55e48e	-0.20887968
87	0x3e41e28d	0.18934079
88	0x3e0a7b73	0.13523655
89	0x3e04bdaa	0.12962976
90	0xbe68c810	-0.22732568
91	0xbe0c5115	-0.13702805
92	0x3cde92f5	0.027169684
93	0x3de3630c	0.11102876
94	0x3d05ba23	0.032648217
95	0xbcdadd12	-0.026716743
96	0x3cd18a04	0.025578506
97	0xbd8ae260	-0.06781459
98	0xbd34eeaa	-0.04417292
99	0xbdc98051	-0.098389275
100	0x3d83d0b6	0.06436293
101	0xbe29e448	-0.16590989
102	0xbe7f21a8	-0.24915183
103	0x3d6e56ea	0.058188356
104	0x3c2723dd	0.010201422
105	0xbe60f16a	-0.21967092
106	0xbe98bab6	-0.2982995
107	0x3decbc1b	0.11559316
108	0x3e8b47a9	0.2720311
109	0x3d87377b	0.06602379
110	0xbe55ccb1	-0.20878865
111	0xbe2e1f49	-0.17004122
112	0x3d5de628	0.054174572
113	0x3e503408	0.20332348
114	0x3e50ad26	0.20378551
115	0xbe19bdb6	-0.15013775
116	0x3cb30562	0.021853153
117	0x3e4c3db4	0.19945413
118	0x3e119b46	0.14219388
119	0xbc25a197	-0.010109327
120	0xbd7dfed2	-0.062010594
121	0x3dcf109d	0.101105906
122	0x3e0f92f1	0.14020897
123	0x3d6217d5	0.05519851
124	0x3db86f2d	0.0900558
125	0xbd94290d	-0.07234392
126	0xbe82b831	-0.25531152
127	0xbe666c32	-0.2250221
128	0x3d2ef467	0.04271355
129	0x3e590019	0.21191444
130	0xbe830e53	-0.25596866
131	0xbeba6ce0	-0.3641119
132	0x3dc37b1c	0.095449656
133	0x3e9640c5	0.2934629
134	0x3e29dc6e	0.16587994
135	0xbef11787	-0.47088262
136	0xbe00bad9	-0.12571277
137	0x3e31f159	0.17377223
138	0x3e736d9e	0.23772284
139	0x3e8c0be3	0.2735282
140	0xbea503bc	-0.32229412
141	0xbd3b42e4	-0.04571809
142	0x3e2e9187	0.17047702
143	0x3e2e660a	0.17031112
144	0x3d9a09bd	0.07521389
145	0xbe170c7e	-0.14750859
146	0x3e5aba6d	0.21360178
147	0x3da5439b	0.08069535
148	0x3dceee0c	0.101039976
149	0x3e344283	0.17603497
150	0x3e3942b8	0.18091857
151	0x3dc9dc02	0.09856416
152	0xbdcf6e2a	-0.10128434
153	0xbcee3c44	-0.029081471
154	0x3ed09d8a	0.40745193
155	0x3d144821	0.0362016
156	0x3e6ea4f7	0.23305117
157	0xbed35e21	-0.41282752
158	0xbe10434f	-0.14088176
159	0x3ebd1a7c	0.36934268
160	0x3de6fe6e	0.11278997
161	0x3e757796	0.239714
162	0xbed07864	-0.4071685
163	0xbed3913a	-0.41321737
164	0x3efc3bc6	0.49264354
165	0x3d7c9900	0.06166935
166	0x3e955a52	0.2917047
167	0xbe47bbce	-0.19505236
168	0xbec29c79	-0.38010004
169	0x3e85f217	0.26161262
170	0xbca6a5e4	-0.020342775
171	0x3e32ec7d	0.17473026
172	0xbe559136	-0.20856175
173	0xbea98392	-0.33108193
174	0x3dd8d51a	0.10587521
175	0x3d6febfb	0.058574658
176	0xbe1ddcbf	-0.15416239
177	0xbefaa409	-0.48953274
178	0xbe28198e	-0.16415998
179	0x3e29797d	0.1655025
180	0x3e93d451	0.28872922
181	0x3d66b251	0.0563224
182	0xbec92741	-0.3928776
183	0xbed00306	-0.40627307
184	0x3e8fb941	0.28071025
185	0x3e848831	0.25885156
186	0x3e52754e	0.2055256
187	0xbee032ec	-0.4378885
188	0xbed00755	-0.40630594
189	0x3eacd631	0.33757165
190	0x3e7d6432	0.24745253
191	0x3e474844	0.19461161
192	0xbe96ca3c	-0.29451168
193	0xbee3ef53	-0.44518527
194	0x3e759c43	0.2398539
195	0x3dd4b215	0.10385529
196	0x3e724bcb	0.23661725
197	0xbcbdaea0	-0.023154557
198	0xbe09bae4	-0.134502
199	0x3df3df45	0.1190782
200	0x3d54df3c	0.051970705
201	0xbcb26524	-0.021776743
202	0xbeca1e70	-0.39476347
203	0xbe2e1bd2	-0.170028
204	0x3e0559e0	0.13022566
205	0x3e54b84c	0.20773429
206	0x3e10a395	0.14124902
207	0xbec91f25	-0.39281574
208	0xbe914789	-0.2837489
209	0x3ea659f0	0.32490492
210	0x3e3211e9	0.17389645
211	0x3eb92d25	0.36167255
212	0xbee000f1	-0.43750718
213	0xbed4dd47	-0.4157507
214	0x3ee2a5c2	0.44267088
215	0x3df52820	0.11970544
216	0x3e9587f5	0.2920529
217	0xbdc43787	-0.095809035
218	0xbebc1bd5	-0.36739984
219	0x3e811a39	0.2521532
220	0x3d55c520	0.052189946
221	0x3e363f64	0.17797619
222	0x3b58dc5d	0.003309033
223	0xbe35fdb0	-0.17772555
224	0x3b35ec20	0.002775915
225	0x3e911cc6	0.28342265
226	0x3e838725	0.25689045
227	0x3ead53c5	0.33852974
228	0x3ea94b66	0.33065337
229	0x3e6bcbb2	0.23026922
230	0x3f069f21	0.5258656
231	0x3f3af35c	0.73027587
232	0x3f18cabe	0.5968436
233	0x3ee1120a	0.43959075
234	0x3da29ac3	0.07939675
235	0xbd7f75b1	-0.0623681
236	0xbd8b7c48	-0.06810814
237	0xbde2a45c	-0.11066505
238	0xbe2a3e2e	-0.16625282
239	0xbe308481	-0.17238046
240	0xbea1f14e	-0.31629413
241	0xbf120240	-0.57034683
242	0xbef0bbdf	-0.47018334
243	0xbf01f907	-0.5077061
244	0xbea0e916	-0.3142783
245	0xbea466d5	-0.32109705
246	0xbe37bc19	-0.17942847
247	0xbe7ec687	-0.2488042
248	0xbc9488e3	-0.018131679
249	0xbdb34296	-0.08752935
250	0xbe9d7a98	-0.30757594
251	0xbe330eae	-0.17486069
252	0xbcf0fd3c	-0.029417627
253	0xbe04c554	-0.129659
254	0xbe219171	-0.15778138
255	0x3ca4abc7	0.020101441

conv1.bias f4 [6]
0	0x3e50ff51	0.20409895
1	0xbe806659	-0.25078085
2	0xbe5e059e	-0.2168183
3	0xbefa0f42	-0.48839766
4	0x3e839f38	0.25707412
5	0x3d92c83c	0.07167098

conv2.weight f4 [16, 6, 5, 5]
0	0x3cd12ea0	0.025534928
1	0x3cb3766e	0.021907058
2	0x3d506e81	0.050886635
3	0xbd340912	-0.043953963
4	0x3d3dc705	0.046332378
5	0xbd10dd25	-0.03536715
6	0xbdc33127	-0.095308594
7	0x3d16121e	0.03663837
8	0x3d497a3e	0.049188845
9	0x3cdd3ce1	0.027006568
10	0xbd0c0cda	-0.034191944
11	0x3befc75b	0.007317466
12	0xbb6cf6c4	-0.0036157826
13	0x3dd7c638	0.10535854
14	0x3da3b2ef	0.07993113
15	0x3d07f27e	0.033190243
16	0xbd251514	-0.040303305
17	0x3d39e7b9	0.045387004
18	0xbd68f284	-0.056871906
19	0x3cad0b73	0.021123623
20	0x3d9497be	0.07255505
21	0xbd1ec72b	-0.03876416
22	0xbd76d2d5	-0.06025966
23	0xbd347e51	-0.044065777
24	0xbdbbcc58	-0.09169835
25	0xbda78c13	-0.08181014
26	0x3ca9fee0	0.020751417
27	0x3dbd3c92	0.092400685
28	0x3e3bf440	0.18354893
29	0x3e440522	0.19142583
30	0xbd04ed69	-0.032452974
31	0x3cea6613	0.028613126
32	0x3e0e6e54	0.13909274
33	0x3ddca0be	0.10772847
34	0x3d1735f3	0.036916684
35	0xbd9f010f	-0.07763874
36	0x3d5df251	0.05418617
37	0xbd9e2fd5	-0.07723967
38	0xbe27dff4	-0.16394025
39	0xbbf72ab5	-0.007542933
40	0xbe0772c6	-0.13227376
41	0xbe35a19b	-0.17737429
42	0xbe1b605a	-0.15173474
43	0xbe279832	-0.16366652
44	0x3a8bdf04	0.0010671322
45	0xbe401762	-0.1875892
46	0xbe12fe18	-0.14354742
47	0xbe4a1a8d	-0.19736691
48	0xbd8e19d0	-0.06938517
49	0x3d34451a	0.044011213
50	0xbdb828ff	-0.089921944
51	0xbd7266d8	-0.05918011
52	0xbe093ed6	-0.13402876
53	0xbe029fa8	-0.12756217
54	0xbe05f67d	-0.13082309
55	0xbe3acc92	-0.182421
56	0xbe82f2af	-0.25575778
57	0xbe8cca48	-0.27498078
58	0xbe7809ae	-0.24222443
59	0xbdce37d2	-0.10069241
60	0xbe78c8c6	-0.24295339
61	0xbe98e2fd	-0.29860678
62	0xbe29c26b	-0.16578071
63	0xbe6cb7cd	-0.2311699
64	0xbd66e507	-0.05637076
65	0xbe78b3d7	-0.24287353
66	0xbe78c068	-0.24292147
67	0xbe7671a3	-0.24066786
68	0xbd645e35	-0.055753905
69	0x3bc70e86	0.0060747294
70	0xbe4733da	-0.19453374
71	0xbe511414	-0.20417815
72	0xbe150fd2	-0.14556816
73	0x3d13e051	0.036102597
74	0x3dbf50d0	0.09341586
75	0x3d961541	0.073282726
76	0x3d294e50	0.04133445
77	0x3df00eaf	0.11721551
78	0x3df29ab6	0.11845915
79	0x3da80661	0.08204342
80	0x3e29ca76	0.16581139
81	0x3d9f8295	0.077885784
82	0x3d29e4fe	0.04147815
83	0x3e15b9f4	0.14621717
84	0x3e4978eb	0.19675033
85	0x3dfac09e	0.1224377
86	0x3e5931ba	0.21210375
87	0x3e17d93b	0.1482896
88	0x3d5a65d8	0.053319782
89	0x3dbe2914	0.09285179
90	0x3da7c86f	0.081925265
91	0xbd34f72e	-0.04418104
92	0x3dd04857	0.10170048
93	0x3e558289	0.20850576
94	0x3e8a8430	0.27053976
95	0x3e4757d6	0.194671
96	0x3e140128	0.14453566
97	0x3e36db0c	0.17856997
98	0x3d48a032	0.0489809
99	0xbc6555ca	-0.0139975045
100	0xbe1f50d3	-0.15558176
101	0xbe35a1d3	-0.17737512
102	0xbe32cebc	-0.17461675
103	0xbe0bd635	-0.13655932
104	0xbe205448	-0.15657151
105	0xbd7b2f68	-0.061324507
106	0xbd90b9fd	-0.070667244
107	0xbcafb838	-0.021450147
108	0x3c5ca660	0.013467401
109	0x3d83ffb4	0.06445256
110	0x3e1c0098	0.15234601
111	0x3d98222a	0.07428391
112	0x3e1af981	0.1513424
113	0x3e6cae3c	0.2311334
114	0x3e291260	0.16510916
115	0x3e327787	0.17428409
116	0x3e5233bc	0.20527548
117	0x3e37539f	0.17902993
118	0x3cc5ab45	0.02412952
119	0x3d3979a5	0.045282025
120	0x3dd04508	0.10169417
121	0x3b9a6385	0.0047115707
122	0xbd71fd11	-0.059079234
123	0xbdb001a7	-0.08594065
124	0xbe379a02	-0.17929843
125	0xbda311c8	-0.07962376
126	0xbdc71caf	-0.09722268
127	0x3ca6a737	0.020343406
128	0xbc31e59a	-0.010857964
129	0xbd2ab5f0	-0.041677415
130	0x3c84b070	0.016197413
131	0x3d8e3935	0.06944505
132	0xbd097f6f	-0.033568796
133	0x3cf1a793	0.02949885
134	0x3bd1d1f8	0.006403204
135	0x3db65b26	0.08904104
136	0xbcd68cff	-0.026190279
137	0xbd1c97b0	-0.038230598
138	0x3d15b553	0.036549877
139	0x3b474b9b	0.0030410055
140	0x3da1ee03	0.07906725
141	0x3d47f45a	0.048817016
142	0x3dd8e84a	0.105911806
143	0x3d5e7caa	0.054318108
144	0x3df7f4aa	0.12107213
145	0x3d845a3b	0.064625226
146	0xbc43c920	-0.011949807
147	0x3d94af14	0.07259956
148	0x3cca1d32	0.024672125
149	0x3db779db	0.08958789
150	0x3dab6fd0	0.08370936
151	0xbcbe8794	-0.023258008
152	0x3cecffec	0.028930627
153	0xbdb35368	-0.08756143
154	0x3d0dd771	0.03462929
155	0x3ba661f8	0.0050775968
156	0xbc5a455e	-0.0133222025
157	0x3ca883e6	0.020570707
158	0xbc2abece	-0.010421468
159	0xbdba3d41	-0.090937145
160	0x3dbdbeaf	0.09264886
161	0x3d573ec1	0.05255008
162	0xbc5af867	-0.013364888
163	0xbc6b9798	-0.0143794045
164	0xbd628910	-0.055306494
165	0x3c5d3e1e	0.013503579
166	0x3d954324	0.07288197
167	0x3d143367	0.036181834
168	0x3cc455f6	0.02396677
169	0xbd8bbed7	-0.06823509
170	0x3e18a709	0.14907469
171	0x3df62bb4	0.120200545
172	0x3d4d89f6	0.050180398
173	0x3c0fb0d2	0.008770185
174	0x3cfead79	0.031088578
175	0xbe6a2187	-0.22864352
176	0xbdf45999	-0.11931152
177	0xbe16f8ec	-0.14743394
178	0xbd859ac6	-0.06523661
179	0xbe064fc2	-0.13116363
180	0xbe34063c	-0.17580503
181	0xbe07ecbd	-0.13273902
182	0xbe1d3e2f	-0.15355752
183	0xbe1c3363	-0.15253977
184	0xbe222310	-0.15833688
185	0xbe00f903	-0.1259499
186	0xbd67a2d7	-0.05655178
187	0xbd69a7b9	-0.05704472
188	0xbe1a6ef5	-0.15081389
189	0xbd83f863	-0.064438604
190	0xbe1e1ca3	-0.15440612
191	0xbd88ec22	-0.06685664
192	0xbdd03985	-0.10167221
193	0xbd87a2c9	-0.06622846
194	0x3d702275	0.05862661
195	0xbdb337e8	-0.08750898
196	0xbce1e70a	-0.027575988
197	0xbbd2f4c3	-0.0064378693
198	0x3d50bfef	0.050964292
199	0x3d80f996	0.06297605
200	0x3c6604e6	0.014039254
201	0xbc26b0e8	-0.010174014
202	0xbe19dad2	-0.1502488
203	0xbe33fef2	-0.17577723
204	0xbe56bda1	-0.20970775
205	0xbe29f81a	-0.1659855
206	0xbc9cc5a3	-0.01913721
207	0xbc81c98a	-0.015843172
208	0xbe0372ce	-0.12836763
209	0xbe07bbc1	-0.13255216
210	0xbe57099b	-0.20999758
211	0xbe308ad0	-0.17240453
212	0xbdc2ddc5	-0.095149554
213	0x3c347f8b	0.011016737
214	0xbdc67c62	-0.09691693
215	0xbe2bef4d	-0.16790505
216	0xbe11ae18	-0.14226568
217	0xbdbcc357	-0.092169456
218	0xbd62ec0c	-0.055400893
219	0xbd4735f2	-0.04863543
220	0xbd942932	-0.0723442
221	0xbd493de1	-0.049131278
222	0xbd2e7645	-0.04259326
223	0xbb825dce	-0.0039784675
224	0xbd716a98	-0.058939546
225	0x3d15257c	0.0364127
226	0xbc1fe283	-0.009758594
227	0x3d8ac899	0.06776542
228	0xbd8cd336	-0.06876223
229	0xbdc9b4c1	-0.09848929
230	0xbdfa2c54	-0.12215486
231	0xbe50026a	-0.20313421
232	0xbd980c09	-0.074241705
233	0xbe0edc91	-0.13951327
234	0xbd332d02	-0.043744095
235	0xbdfb7765	-0.12278632
236	0xbc4ef6d7	-0.012632093
237	0xbdcd4c7e	-0.10024355
238	0xbd1cb5e0	-0.038259387
239	0xbd96e39b	-0.07367631
240	0xbd6b5e42	-0.057462938
241	0xbcce4b49	-0.025182383
242	0xbe005a56	-0.1253446
243	0xbcfdc154	-0.030975975
244	0xbde17d04	-0.11010173
245	0xbdf8155c	-0.12113449
246	0xbdc9053c	-0.098154515
247	0xbddb5702	-0.10709955
248	0xbd710fa8	-0.05885282
249	0xbb4b9b31	-0.0031067843
250	0x3df6e0ea	0.12054618
251	0x3d568bae	0.052379303
252	0x3d7d2d12	0.06181056
253	0x3dc77723	0.097395204
254	0x3d927872	0.07151879
255	0x3dae5b64	0.08513525

conv2.bias f4 [16]
0	0x3db2d062	0.08731152
1	0x3f1b528b	0.60672826
2	0x3f2eb75d	0.6824854
3	0xbe60798b	-0.21921365
4	0xbe6612c4	-0.22468096
5	0x3f45408f	0.77051634
6	0x3e35431d	0.17701383
7	0xbf05bfd5	-0.5224584
8	0xbe7b9e65	-0.24572141
9	0xbe70637c	-0.2347545
10	0x3e8f1526	0.27945822
11	0x3ee25c2d	0.4421095
12	0x3e3bd1c8	0.18341744
13	0xbee8f08d	-0.45496026
14	0xbdc7ffaa	-0.09765561
15	0x3cc2087f	0.023685692

fc1.weight f4 [120, 400]
0	0x3d852c0a	0.065025404
1	0x3cadd0d2	0.021217737
2	0xbd171c26	-0.03689208
3	0x3ce570cb	0.028007885
4	0x3c061060	0.008182615
5	0x3c94245a	0.01808374
6	0xbbc1deef	-0.0059164683
7	0xbd8c7aa1	-0.06859327
8	0xbd2a7aed	-0.041621137
9	0xbcc1d3bc	-0.023660533
10	0xbd10e171	-0.035371248
11	0xbcb2c037	-0.02182017
12	0x3cad604a	0.021164078
13	0xbc89350e	-0.016748931
14	0xbd6cbaf5	-0.057795484
15	0x3d100242	0.035158403
16	0xbd2b6341	-0.041842703
17	0x3ced1077	0.028938515
18	0x3d2320a0	0.039826035
19	0xbbda23e6	-0.0066571115
20	0x3c332d3a	0.010936076
21	0xbd0b463c	-0.034002528
22	0xbc7233f8	-0.014782898
23	0x3d8dbc01	0.069206245
24	0x3ab3f6db	0.0013730185
25	0x3d67dcf6	0.05660721
26	0x3c675aa9	0.014120736
27	0x3d807c93	0.06273761
28	0xbc12bcc0	-0.008956134
29	0xbcaa857a	-0.0208156
30	0xbc26b4c6	-0.010174936
31	0xbc4dcc7d	-0.012560961
32	0x3d2d7be7	0.04235449
33	0x3cf252a6	0.029580425
34	0xbcd07e3a	-0.025450815
35	0x3d3c9396	0.046039186
36	0xbad79f32	-0.0016450642
37	0xbc748d16	-0.014926216
38	0x3bf9760f	0.0076129506
39	0xbc89d070	-0.016823024
40	0x3c32ff15	0.010925074
41	0x3cbc9263	0.023019021
42	0xbcde6bfc	-0.0271511
43	0xbce83bc1	-0.028348805
44	0xbd1ed5f4	-0.03877826
45	0x3c924ede	0.017859872
46	0xbcea93ab	-0.028634867
47	0xbd9e4925	-0.07728795
48	0xbd60950f	-0.054829653
49	0x3bbed7c3	0.0058240606
50	0xbcd690e7	-0.026192142
51	0x3d31c619	0.04340181
52	0xbca76bca	-0.02043714
53	0x3ca3b662	0.019984428
54	0xbcc470a2	-0.023979489
55	0xbc9438cf	-0.018093495
56	0x3cb1a32e	0.021684255
57	0xbd0625ac	-0.03275077
58	0xbcfd585f	-0.030925928
59	0x3b3237e2	0.0027193953
60	0x3cead7af	0.0286673
61	0x3c500113	0.012695569
62	0xbba60800	-0.0050668716
63	0x3be4e76f	0.006985597
64	0x3d92944c	0.07157192
65	0xbca380ab	-0.019958815
66	0x3d4be7e0	0.04978168
67	0x3d8af5d5	0.0678517
68	0x3c813483	0.01577211
69	0x3d6de0e5	0.058075804
70	0x3b98b95a	0.0046607675
71	0x3d461be9	0.04836646
72	0x3c50f14c	0.012752842
73	0x3c1c8bb1	0.009554789
74	0x3d33dd52	0.04391224
75	0x3bd0165e	0.0063503226
76	0xbd443746	-0.047904275
77	0xbc5d5d63	-0.013511035
78	0xbd217947	-0.0394223
79	0x3c7b92e6	0.015354848
80	0x3c878a14	0.016545333
81	0xbd77cd1c	-0.060498342
82	0xbd1629b4	-0.036660865
83	0xbd0bbd9a	-0.034116365
84	0x3d018356	0.031619392
85	0x3cdda37d	0.027055496
86	0xbb5b6a16	-0.003347998
87	0xbd54f42d	-0.051990677
88	0x3bd0d675	0.0063732215
89	0xbd17c449	-0.037052426
90	0xbcd1ae04	-0.025595672
91	0x3cbebd4d	0.023283625
92	0x3cc9639c	0.02458363
93	0x3c10758d	0.008817089
94	0xbd12df9f	-0.035857793
95	0xbcb1f0e3	-0.021721309
96	0x3cd80b9a	0.02637272
97	0x3c869a3d	0.016430968
98	0x3c3e2cf9	0.011607402
99	0xbc6ced24	-0.014460836
100	0xbc36d792	-0.011159794
101	0x3d2320b3	0.039826106
102	0x3d46118c	0.048356578
103	0xbd144a14	-0.03620346
104	0xbd088c94	-0.03333719
105	0x3d04190b	0.032250445
106	0xba87b79c	-0.0010354402
107	0x3cd63d5e	0.026152309
108	0x3d39232c	0.04519956
109	0xbc901797	-0.017589374
110	0x3c9dc71e	0.019259986
111	0xbb5a4e94	-0.0033310996
112	0xbb88c525	-0.004173892
113	0xbcfe15e6	-0.031016301
114	0x3d0f714e	0.035020165
115	0xbd61de96	-0.055143915
116	0x3cdad656	0.026713531
117	0xbd1969ce	-0.03745442
118	0xbb940532	-0.004517221
119	0xbb7218bf	-0.003694102
120	0xbd7956bd	-0.060873736
121	0xbc81df03	-0.01585341
122	0xbd1106a8	-0.03540674
123	0x3b7759fb	0.0037742842
124	0xbd519f73	-0.051177453
125	0x3cfaa3a7	0.030595614
126	0x3d699537	0.057027068
127	0xbd2cb3e8	-0.04216376
128	0x3cce9f76	0.025222521
129	0xbcfbacce	-0.030722048
130	0xbcb92fde	-0.022605833
131	0x3ca574b2	0.020197246
132	0xbc876be2	-0.016530935
133	0xbd3d2c9e	-0.04618513
134	0x3cda9ff9	0.026687609
135	0x3ce514ea	0.027964074
136	0x3d1ec589	0.038762603
137	0xbc61efc0	-0.013790071
138	0xbd232f7c	-0.039840207
139	0xbbbf7dca	-0.0058438526
140	0x3d7d5dc6	0.061857007
141	0xbc3a7b81	-0.011381985
142	0x3d8387cf	0.06422388
143	0x3d399e5c	0.04531704
144	0x3d29e632	0.041479297
145	0x3d7c7dea	0.06164352
146	0x3c664cc8	0.014056392
147	0x3d922534	0.07136002
148	0x3d4d8954	0.050179794
149	0x3d0c3bdf	0.034236785
150	0xbd04745e	-0.03233754
151	0x3d2d5ade	0.042322986
152	0xbd2d25b8	-0.0422723
153	0xbca569ea	-0.020192105
154	0x3d1ca217	0.03824052
155	0xbb92d28f	-0.004480667
156	0xbc965226	-0.018349718
157	0x3d3947c9	0.045234475
158	0xbc2507ed	-0.01007269
159	0x3cfbbc05	0.030729303
160	0xba45ce09	-0.0007545655
161	0xbc9f417e	-0.019440409
162	0x3d6d9425	0.05800261
163	0x3d719378	0.058978528
164	0xbd679bcc	-0.056545064
165	0xbd00ef6a	-0.031478323
166	0x3b843bb7	0.004035439
167	0x3d0002d9	0.031252716
168	0x3d0579cf	0.03258687
169	0xbd93ffd9	-0.072265334
170	0x3adb23f2	0.0016719087
171	0xbd421f76	-0.047393285
172	0x3cd74bf6	0.026281338
173	0xbc253751	-0.010083989
174	0xbd5d9e09	-0.054105792
175	0xbd805344	-0.06265882
176	0xbd42c181	-0.04754782
177	0x3cdaaa1f	0.026692448
178	0x3d0622cb	0.032748025
179	0x3c1dfbf0	0.009642586
180	0xbd3f1cf4	-0.04665847
181	0x3d01612a	0.031586803
182	0xb9cc49b5	-0.00038964828
183	0xbc3b73a4	-0.011441145
184	0xbd166375	-0.036715943
185	0xbd3274aa	-0.04356829
186	0xbd453a73	-0.048151445
187	0xb98423fc	-0.00025203812
188	0xbd9b5470	-0.075844646
189	0xbd14bfc5	-0.0363157
190	0x3b987242	0.0046522925
191	0x3ca97ef5	0.02069042
192	0x3c6af581	0.014340759
193	0x3bc1f928	0.0059195943
194	0xbd81b751	-0.06333793
195	0xbd11d68c	-0.035605
196	0x3bab965a	0.005236429
197	0xbc2bf141	-0.010494531
198	0xbcc4c5a2	-0.02402002
199	0x3c92330d	0.017846609
200	0xbd17c0cf	-0.03704911
201	0xbc13dcea	-0.009024838
202	0xbd45f534	-0.048329547
203	0x3c8e3a2a	0.01736172
204	0xbc5a0c01	-0.013308526
205	0xbd4a1321	-0.04933465
206	0xbd320221	-0.04345906
207	0xbd1ff666	-0.039053343
208	0xbd061572	-0.032735296
209	0xbce82f8a	-0.02834298
210	0xbc1f92ce	-0.009739591
211	0xbb85692f	-0.0040713768
212	0x3c9d32ae	0.019189205
213	0xbbe05273	-0.006845766
214	0xbbbae0cd	-0.005703068
215	0xbd16125d	-0.036638606
216	0xbd438114	-0.04773052
217	0xbd4237d0	-0.04741651
218	0x3c905647	0.017619265
219	0x3ce07129	0.027397709
220	0xbce833e7	-0.028345061
221	0xbd0980c3	-0.033570062
222	0xbcbd79c6	-0.023129355
223	0xbcc21113	-0.023689782
224	0xbb40c2d9	-0.0029413013
225	0x3c302409	0.010750779
226	0xbd5b57a6	-0.053550385
227	0x3cb37ff6	0.021911602
228	0xbc44ff54	-0.012023766
229	0x3b6b7a11	0.0035930912
230	0x3d25139f	0.040301915
231	0xbbc63230	-0.0060484633
232	0xbd4fcf29	-0.050734673
233	0xbb69d4b0	-0.003567975
234	0xbd31b1b4	-0.04338236
235	0x3d0d73fb	0.034534436
236	0xbd0f0fdf	-0.034927245
237	0x3c9c7cad	0.019102419
238	0x3cc82bf9	0.02443503
239	0x3ca2c19c	0.01986771
240	0xbc9ed689	-0.019389408
241	0x3ccedcbb	0.025251737
242	0xbca39f28	-0.019973353
243	0x3ccb06f9	0.024783598
244	0x3b90e5b8	0.004421916
245	0x3c8c2d5c	0.017111473
246	0x3c3b8191	0.011444465
247	0xbcfc10ee	-0.030769791
248	0xbc8ee68a	-0.017443914
249	0x3cc4f6df	0.024043499
250	0x3c3843c2	0.0112466235
251	0x3bdf08d2	0.0068064714
252	0xbd03bada	-0.032160617
253	0x3d3a6751	0.045508686
254	0x3cf212aa	0.029549915
255	0x3d81efb1	0.06344546

fc1.bias f4 [120]
0	0x3d2301d4	0.039796665
1	0xbcc68433	-0.02423296
2	0xbd68c467	-0.05682793
3	0xbdc673c3	-0.096900485
4	0xbc8d3805	-0.017238626
5	0x3d1d6b37	0.038432326
6	0x3bfd678b	0.0077332905
7	0x3dc9eed9	0.0986001
8	0x3d00152d	0.031270195
9	0x3d612beb	0.054973524
10	0x3e75fb55	0.24021657
11	0x3d93afe6	0.07211284
12	0x3d45da10	0.048303664
13	0xbc7adb73	-0.01531111
14	0x3d8aaa04	0.06770709
15	0xbd38cdc2	-0.0451181
16	0x3dafaa81	0.08577443
17	0x3d07e031	0.03317279
18	0x3b40ef3a	0.0029439465
19	0xbcc6022a	-0.024170954
20	0x3dfa13f8	0.1221084
21	0x3ce9a384	0.028520353
22	0xb615e880	-2.2338063e-06
23	0x3e089871	0.13339402
24	0xbccc79ee	-0.024960484
25	0xbd0c1eac	-0.03420894
26	0x3dd33175	0.103121676
27	0x3e18c61a	0.1491932
28	0x3cb4a10b	0.022049448
29	0x3bbbf320	0.00573577
30	0x3dfbb66f	0.12290656
31	0x3cdd0ac2	0.026982669
32	0x3e37e7eb	0.17959563
33	0x3d15e2d9	0.036593292
34	0x3db279b6	0.08714621
35	0x3c45a9cf	0.012064411
36	0x3c52dc01	0.012869836
37	0x3db83a9a	0.08995552
38	0xbd987971	-0.07445038
39	0x3da0dc0a	0.07854469
40	0xbd22713d	-0.039658774
41	0xbcfb551f	-0.030680237
42	0xbd76ed3d	-0.06028484
43	0x3c920e83	0.017829185
44	0x3c4a74ab	0.012356917
45	0xbb873122	-0.00412573
46	0xbc8c67ec	-0.017139398
47	0x3e1fe3ef	0.15614294
48	0x3b8971e2	0.004194484
49	0x3d4f2d15	0.050580103
50	0x3d9132fd	0.07089803
51	0x3da89cb4	0.08233014
52	0xbda36ada	-0.07979365
53	0x3e8ea2e1	0.27858642
54	0x3ce97d52	0.02850214
55	0xbd0ce68d	-0.034399558
56	0xbd1f5c57	-0.03890642
57	0x3dd7d762	0.10539128
58	0xbcf275ab	-0.029597124
59	0xbd06c6ff	-0.03290462
60	0xbbe03c5a	-0.006843132
61	0xbda9323b	-0.08261534
62	0xbc857564	-0.016291328
63	0xbd8eebd5	-0.06978575
64	0x3ddd0b8e	0.107932195
65	0x3d473852	0.048637696
66	0xbd32ef0a	-0.043684997
67	0xbcde49b9	-0.027134763
68	0x3d3dc69c	0.046331987
69	0xbb4e48c4	-0.0031476477
70	0x3cce18d7	0.025158329
71	0x3d1d8ba0	0.038463235
72	0x3dd102ce	0.10205613
73	0xbc8960a3	-0.016769713
74	0x3dbd88ba	0.09254594
75	0xbd211025	-0.039322037
76	0x3def6305	0.11688808
77	0xbccb0009	-0.02478029
78	0x3b9192ec	0.0044425633
79	0x3be1dce5	0.0068927878
80	0x3b6fa09b	0.0036564234
81	0x3d7b3063	0.061325442
82	0x3e8e896f	0.2783923
83	0xbe0f0476	-0.13966545
84	0x3d007f54	0.03137143
85	0xbcd33639	-0.025782691
86	0xbcdc79e7	-0.026913596
87	0x3dcdb7a2	0.10044791
88	0x3cad6322	0.021165434
89	0xbc03f146	-0.00805313
90	0x3e17ab96	0.14811549
91	0x3c62f818	0.0138530955
92	0x3dc1409a	0.0943615
93	0xbce6b4af	-0.028162329
94	0xbdbf9dec	-0.09356293
95	0x3b0c1430	0.0021374337
96	0x3d1ede9f	0.038786527
97	0xbdb1925b	-0.08670493
98	0xbc9cc4ab	-0.019136747
99	0x3d1fcd61	0.039014224
100	0x3e25a456	0.1617597
101	0x3dc70cb5	0.097192205
102	0xbc8f314d	-0.017479563
103	0xbb97cf85	-0.0046328926
104	0x3e080862	0.13284448
105	0xbda17621	-0.078838594
106	0x3dc00a96	0.09377019
107	0xbd1122b1	-0.035433475
108	0x3cc7d890	0.024395257
109	0xbd9b7515	-0.07590691
110	0x3adde9b6	0.0016930613
111	0xbc5cc876	-0.013475528
112	0xbd8b90c7	-0.068147235
113	0xbd5af56a	-0.0534567
114	0x3dbcd04f	0.09219419
115	0x3ca86426	0.020555567
116	0x3dd8c856	0.10585086
117	0xbad5b48e	-0.001630442
118	0x3dd82969	0.10554773
119	0xbce073fe	-0.02739906

fc2.weight f4 [84, 120]
0	0xbbb3462a	-0.0054710107
1	0x3d4287e6	0.047492884
2	0x3cdaa20b	0.026688596
3	0x3c880a12	0.016606364
4	0x3cef796d	0.029232705
5	0xbd5d3876	-0.054008923
6	0xbd235878	-0.039879292
7	0xbcd180ce	-0.025574114
8	0xbdd47f52	-0.10375847
9	0x3d9dac62	0.07698895
10	0xbba40565	-0.005005526
11	0x3d89d4e7	0.06730061
12	0x3cc6918f	0.02423933
13	0xbd940584	-0.072276145
14	0xbd9e65f0	-0.07734287
15	0x3cdf397b	0.027249089
16	0xbc45ad00	-0.012065172
17	0x3d653964	0.055962935
18	0xbcaa22db	-0.020768574
19	0x3cef8279	0.029237019
20	0xbd2541ea	-0.040346064
21	0xbd52c310	-0.051455557
22	0xbda29792	-0.07939066
23	0xbde7e369	-0.11322672
24	0x3dadc7d1	0.084853776
25	0x3d38a408	0.045078307
26	0x3c04e409	0.008111008
27	0xba88f945	-0.0010450265
28	0xbd8b5aac	-0.06804404
29	0x3e3a423f	0.18189333
30	0xbd80d06c	-0.06289753
31	0xbd9fd2bc	-0.07803866
32	0xbe347ab2	-0.1762493
33	0x3da85f9f	0.08221363
34	0xbcd62149	-0.026138918
35	0x3dc7f2dd	0.09763119
36	0xbc2b3f88	-0.010452159
37	0x3d582b6c	0.052775785
38	0x3d128368	0.03576985
39	0x3cf1233c	0.029435746
40	0x3e0cc748	0.13747895
41	0xbd4feff4	-0.050765947
42	0x3d7ce1c2	0.061738737
43	0xbdf94c28	-0.12172729
44	0xbc95e6bc	-0.0182985
45	0xbe2a43ef	-0.16627477
46	0x3d406863	0.04697455
47	0x3daabb40	0.08336496
48	0x3ddf9391	0.10916818
49	0x3d15ae35	0.03654309
50	0x3d96db1d	0.07366011
51	0xbcf26809	-0.029590623
52	0xbd9f10b1	-0.077668555
53	0xbc9e94f9	-0.019358145
54	0x3cc4bb15	0.024014989
55	0xbdb80208	-0.089847624
56	0x3e589f04	0.2115441
57	0xbdbad541	-0.09122706
58	0x3da9023b	0.082523786
59	0x3d457cfd	0.0482149
60	0x3d9fe0fa	0.07806583
61	0x3d7c0582	0.06152869
62	0x3ceb7ca2	0.028745953
63	0x3d11685c	0.035499915
64	0x3d9f9745	0.07792524
65	0xbb36ee5a	-0.0027913065
66	0xbdb826e9	-0.089917965
67	0x3d33f01e	0.043930165
68	0x3d56ec88	0.052471668
69	0xbc12a790	-0.008951083
70	0x3d23cbc7	0.03998926
71	0xbd8e1cca	-0.06939085
72	0xbd2c47a2	-0.042060502
73	0xbdaf7ce2	-0.085687414
74	0x3c7fbf91	0.015609638
75	0xbd1f64ff	-0.038914677
76	0xbd82863c	-0.063732594
77	0xbd997060	-0.07492137
78	0xbd08c3cf	-0.033389863
79	0x3cf3d9c0	0.029766917
80	0x3e2c2b17	0.16813312
81	0xbdac3fb4	-0.08410588
82	0xbc870e2b	-0.016486248
83	0x3e074d38	0.1321305
84	0x3d83de7b	0.06438919
85	0x3d17b7eb	0.037040632
86	0x3cfa606b	0.030563554
87	0xbd725f59	-0.05917296
88	0xbda3c28c	-0.07996091
89	0x3cfb5c28	0.030683592
90	0xbc6aa4ca	-0.014321515
91	0xbd2e38f6	-0.04253479
92	0xbd830eb9	-0.063992925
93	0x3c9f902b	0.019477924
94	0x3da12e81	0.07870198
95	0xbd9dc6c5	-0.07703928
96	0x3d6dad83	0.0580268
97	0x3e760e7c	0.24028963
98	0x3da30613	0.07960143
99	0xbd32117b	-0.043473702
100	0x3d5cb386	0.053882144
101	0x3d4ed0f2	0.050492235
102	0x3af6c87b	0.0018828058
103	0x3e09caf8	0.13456333
104	0x3cebaf7e	0.028770205
105	0xbe08f62f	-0.13375162
106	0xbd94cd2a	-0.072656944
107	0x3db0bec2	0.08630134
108	0xbc1fa2f7	-0.009743444
109	0x3ce223f8	0.027605042
110	0xbdde2ee6	-0.10848789
111	0xbd576150	-0.05258304
112	0xbdadb7de	-0.084823355
113	0x3dc5e8c4	0.09663537
114	0x3d3af0aa	0.04563967
115	0x3ce7af04	0.028281696
116	0x3db36c6c	0.08760914
117	0x3be1c278	0.0068896376
118	0x3ca5ee7f	0.020255325
119	0xbc5146e7	-0.012773252
120	0xbce1b7ea	-0.027553517
121	0x3d8c11b4	0.06839314
122	0xbd872e34	-0.066006094
123	0xbd55bc43	-0.052181493
124	0x3d23ae19	0.039960954
125	0x3d2cf0d9	0.042221878
126	0x3d364fc4	0.044509664
127	0x3d352708	0.044226676
128	0x3d9ad910	0.07560933
129	0x3c3f6c2a	0.011683503
130	0xbc95801e	-0.018249568
131	0x3ca0c969	0.01962729
132	0x3d5dc49f	0.05414259
133	0xbd498b8f	-0.04920536
134	0xbdf266c1	-0.11836005
135	0xbde033a7	-0.10947352
136	0x3da77906	0.0817738
137	0x3d7913de	0.060809962
138	0x3d45f290	0.04832703
139	0xbc18f7db	-0.009336437
140	0x3d8de214	0.069278866
141	0x3ca9a05f	0.020706354
142	0x3d09a242	0.033602007
143	0x3d1955df	0.03743541
144	0xbd9407b9	-0.072280355
145	0xbda4f7c0	-0.08055067
146	0xbdc3d48a	-0.09562023
147	0xbd5a9e9e	-0.053373925
148	0x39faf1ed	0.00047863965
149	0xbc9fd183	-0.019509083
150	0x3da0c3bc	0.07849833
151	0x3d0a9338	0.033831805
152	0xbd52be65	-0.051451106
153	0x3cd045b0	0.025423855
154	0xbdc1dade	-0.09465574
155	0xbd858f7a	-0.065215066
156	0xbd888f4d	-0.066679575
157	0xbdca4a0b	-0.09877404
158	0x3dc00a49	0.09376962
159	0xbd28c6cc	-0.041205212
160	0xbd629e73	-0.05532689
161	0xbdb1768f	-0.086651914
162	0xb85e25db	-5.296418e-05
163	0xbd68a4a3	-0.056797635
164	0xbdb453f0	-0.08805072
165	0x3d72ecde	0.059307925
166	0x3dadb281	0.084813125
167	0x3da34297	0.079716854
168	0x3d7b06e7	0.06128588
169	0xbd97037b	-0.07373711
170	0x3c05ffd3	0.008178669
171	0x3b068f24	0.0020532096
172	0x3dc426f5	0.09577743
173	0x3d3c6331	0.045993034
174	0xbd868da6	-0.06569986
175	0xbd9eb0b3	-0.077485465
176	0x3d12e125	0.035859246
177	0xbd8d285f	-0.06892466
178	0x3d9ab895	0.075547375
179	0x3d3a6cc6	0.04551389
180	0x3d50cf13	0.05097873
181	0xbca9290b	-0.020649454
182	0x3db13528	0.08652717
183	0xbc82f71b	-0.01598697
184	0xbd134e46	-0.03596332
185	0x3d9e824b	0.07739695
186	0xbd987f68	-0.07446176
187	0xbccbe981	-0.024891617
188	0x3dab4146	0.08362059
189	0xbd891d1e	-0.06695007
190	0x3d2fc87f	0.042915817
191	0x3d956065	0.072937764
192	0x3d3f9981	0.046777252
193	0xbd99936c	-0.074988216
194	0x3cd707ae	0.02624878
195	0xbcf2126c	-0.0295498
196	0xbde10fe8	-0.10989362
197	0xbcff67a1	-0.031177344
198	0xbd1a9d39	-0.037747595
199	0x3cf62a69	0.03004952
200	0x39127940	0.00013968814
201	0x3d2e33fa	0.042530037
202	0xbda7e309	-0.081976004
203	0xbcfebd3c	-0.031096093
204	0x3aa5f07c	0.0012660171
205	0x3d5f9c32	0.05459232
206	0xbc8ef740	-0.017451882
207	0xbdd721ed	-0.10504518
208	0xbdbb6b36	-0.09151308
209	0xbb9343ab	-0.0044941506
210	0xbbde96a3	-0.0067928596
211	0x3d7371e1	0.059434775
212	0xbdb6898e	-0.08912955
213	0xbdb50e01	-0.08840562
214	0x3dd1a429	0.10236389
215	0x3c4b7d50	0.012420014
216	0x3d61cd61	0.055127505
217	0x3cdcc52a	0.026949484
218	0x3e089c31	0.13340832
219	0xbd9ae693	-0.0756351
220	0xbdea9c22	-0.11455561
221	0xbdaaa1d0	-0.083316445
222	0x3d9c7b26	0.07640676
223	0x3de4989f	0.11161923
224	0x3cd5ca8a	0.026097555
225	0xbd86b7de	-0.06578039
226	0xbc909244	-0.01764787
227	0x3de01f2b	0.10943445
228	0x3d34b7cf	0.044120606
229	0xbcbfc407	-0.023408903
230	0xbd5e0963	-0.05420817
231	0x3dafebb1	0.085898764
232	0xbd940406	-0.0722733
233	0x3d6cdb66	0.057826422
234	0xbd2d4acf	-0.04230767
235	0xbd8c5618	-0.068523586
236	0xbc8e2249	-0.017350333
237	0xbc845b71	-0.016156884
238	0xbb392f3d	-0.0028256916
239	0x3daa802c	0.08325228
240	0xbcdd3aca	-0.027005572
241	0x3d98118c	0.07425222
242	0x3cc05f03	0.023482805
243	0xbcb9d305	-0.02268363
244	0x3d84402e	0.06457554
245	0x3b9e623d	0.0048334883
246	0x3c7ef325	0.0155609
247	0xbd892816	-0.06697099
248	0xbd290e30	-0.041273296
249	0x3d9260f1	0.07147396
250	0xbd7c2729	-0.061560784
251	0xbbe018ef	-0.00683891
252	0xbd9054c9	-0.070474215
253	0xbd30d4be	-0.043171637
254	0xbda3412b	-0.07971414
255	0xbd922436	-0.07135813

fc2.bias f4 [84]
0	0x3c6ae144	0.014335934
1	0x3d7fe62c	0.06247537
2	0xbce8d2d0	-0.028420836
3	0xbc6e6cb8	-0.014552288
4	0x3c784443	0.015152994
5	0xbdffe806	-0.12495427
6	0x3e53df5d	0.20690675
7	0x3e2c358d	0.16817303
8	0xbdd1dfbc	-0.10247752
9	0x3e22f46d	0.15913554
10	0x3e6a7952	0.22897843
11	0xbccee193	-0.025254047
12	0x3bdebb41	0.0067972247
13	0x3d75ffff	0.06005859
14	0xbd620bb6	-0.05518695
15	0x3de8d781	0.11369229
16	0xbd9c634d	-0.076361276
17	0xbd443a3c	-0.0479071
18	0xbd323662	-0.043508895
19	0x3e9224a1	0.2854357
20	0x3ea16783	0.31524286
21	0x3dcd61e6	0.10028438
22	0xbd281c25	-0.041042466
23	0x3d4d5eee	0.05013936
24	0x3e2354b5	0.15950282
25	0x3e36243f	0.17787264
26	0xbde22bc1	-0.11043502
27	0xbd82ce33	-0.06386986
28	0xbd64f6e0	-0.0558995
29	0xbdf6417e	-0.120242104
30	0x3eca687b	0.39532837
31	0xbdea9fc8	-0.11456257
32	0xbb98b880	-0.004660666
33	0x3e23c854	0.15994388
34	0xbd54deb9	-0.051970217
35	0x3bdb0796	0.006684254
36	0x3e2f819c	0.17139286
37	0x3d13cc52	0.036083527
38	0xbd6e9447	-0.058246877
39	0x3c49b6db	0.012311663
40	0x3d7d1d96	0.061795793
41	0x3d69a0cf	0.057038125
42	0xbd5ec58f	-0.054387625
43	0x3e645510	0.22298074
44	0xbd77093a	-0.060311534
45	0xbcfa3b4c	-0.030545853
46	0xbd69a0f8	-0.057038277
47	0x3e6c15a0	0.23055124
48	0x3ee4de26	0.44700736
49	0xbdc13471	-0.094338305
50	0xbcbb26d5	-0.022845665
51	0xbc5e9a3c	-0.013586577
52	0xbc5acf80	-0.013355136
53	0xbd9d65e2	-0.07685448
54	0x3e7fce55	0.24981053
55	0xbdc94f33	-0.09829559
56	0x3ee3560d	0.4440159
57	0x3d9a4d81	0.07534314
58	0x3e3cca25	0.18436487
59	0xbc6b45c2	-0.014359893
60	0x3ed534f4	0.41641963
61	0x3d39f6a7	0.04540124
62	0x3cc2c5e8	0.02377601
63	0xbd7417ce	-0.059593014
64	0x3eab16fe	0.3341598
65	0x3d0a11b9	0.033708308
66	0xbd225462	-0.039631255
67	0xbd245e29	-0.04012886
68	0x3c6a1120	0.0142863095
69	0x3e783b86	0.24241456
70	0x3e4322bd	0.1905622
71	0xbd2930e2	-0.041306384
72	0x3dd9b1c8	0.10629612
73	0x3e0d4ec3	0.13799576
74	0xbd69dcd1	-0.057095353
75	0x3e7176c3	0.2358046
76	0x3e44b2fb	0.192089
77	0xbd59f6ff	-0.05321407
78	0xbcff1221	-0.031136574
79	0xbce2e8f8	-0.027698979
80	0xbd073e1d	-0.03301822
81	0xbc18a24a	-0.0093160365
82	0x3df1421f	0.1178019
83	0xbdc6d444	-0.09708455

fc3.weight f4 [10, 84]
0	0x3cec781d	0.028865868
1	0xbe195426	-0.14973506
2	0x3dfdec7b	0.12398621
3	0x3c9e9d96	0.019362252
4	0x3e807822	0.25091654
5	0x3d340037	0.043945517
6	0x3e4967ff	0.19668578
7	0x3e3af260	0.18256521
8	0x3ec384a4	0.38187134
9	0x3e17e972	0.14835146
10	0x3e0fed7f	0.14055441
11	0xbd005c20	-0.031337857
12	0xbe1f94d7	-0.15584122
13	0x3e0474ca	0.12935176
14	0x3cf6e5c7	0.030138863
15	0x3cbab5a2	0.022791687
16	0xbdc1b553	-0.09458413
17	0xbdf7c0f1	-0.120973475
18	0xbd8b91e2	-0.06814934
19	0x3eaa656c	0.33280504
20	0xbd9418eb	-0.07231315
21	0xbe32bfdf	-0.17456006
22	0x3dec2f0a	0.115324095
23	0x3c97791a	0.018490363
24	0x3d7cfb74	0.061763242
25	0x3d57fe83	0.052732956
26	0xbde484fb	-0.111581765
27	0xbca1f188	-0.019768491
28	0xbbc9d8d7	-0.0061598825
29	0x3e1ac050	0.15112424
30	0xbe8faa97	-0.28059837
31	0x3dba5036	0.0909733
32	0x3d3b468c	0.045721576
33	0xbde70f0f	-0.11282169
34	0xbdda0c54	-0.10646883
35	0x3d6f7801	0.058464054
36	0xbd903666	-0.07041626
37	0xbdc85d5d	-0.09783433
38	0x3d587802	0.052848823
39	0x3d350187	0.04419091
40	0x3e114fcc	0.14190596
41	0x3d91ed6a	0.07125361
42	0xbd509c0e	-0.050930075
43	0x3d9fc585	0.07801346
44	0x3d7df266	0.061998747
45	0xbcbf02ff	-0.023316858
46	0x3cfa155c	0.030527763
47	0x3bf24da5	0.00739451
48	0xbe306dfb	-0.17229454
49	0x3e1b0a22	0.15140584
50	0xbd250b90	-0.04029423
51	0x3b9aa89f	0.004719808
52	0xbd141135	-0.036149222
53	0xbd96788a	-0.0734721
54	0x3dfff0b0	0.12497079
55	0xbc2c8ef6	-0.010532131
56	0xbe874b90	-0.26424837
57	0xbe27796d	-0.16354914
58	0xbe20e0e7	-0.15710793
59	0x3dcb0be6	0.09914379
60	0xbe20761c	-0.15670055
61	0x3d0bf358	0.034167618
62	0x3e291dfa	0.16515341
63	0xbdcdb719	-0.10044689
64	0xbe715fc9	-0.23571695
65	0x3e0a6190	0.1351378
66	0x3beeb8af	0.0072851996
67	0x3dc77056	0.09738223
68	0xbd87ca13	-0.066303395
69	0xbe845532	-0.2584625
70	0x3eafc46c	0.34329545
71	0x3e810598	0.2519958
72	0xbdecee33	-0.115688704
73	0xbd998f02	-0.0749798
74	0x3d6789cf	0.05652791
75	0x3d94d777	0.07267659
76	0x3e38c344	0.18043238
77	0xbc1f8daf	-0.00973837
78	0xbd5064f7	-0.050877538
79	0x3cf6bf72	0.030120585
80	0x3e490680	0.19631386
81	0x3d57dd57	0.05270132
82	0xbdc636c6	-0.09678416
83	0xbc71ff1b	-0.014770295
84	0x3ed3a224	0.4133464
85	0x3e1427b4	0.1446827
86	0x3dac037e	0.083991036
87	0x3df52163	0.11969259
88	0xbc3e4ce4	-0.011615012
89	0xbc936b5a	-0.017995525
90	0xbe4d8741	-0.20071127
91	0xbd067800	-0.032829285
92	0xbdc3d7ff	-0.09562682
93	0x3d3802d1	0.04492456
94	0xbe8b56fa	-0.27214795
95	0xbd798e49	-0.06092671
96	0x3e14e7be	0.14541528
97	0xbd39ddc1	-0.045377497
98	0xbd6d1310	-0.057879508
99	0xbd9aa022	-0.07550074
100	0xbda87a99	-0.08226509
101	0x3e153884	0.1457234
102	0xbcf66dda	-0.030081678
103	0x3e31008b	0.17285363
104	0x3ce595ef	0.028025595
105	0x3bd0ca2c	0.006371757
106	0x3dc0e5c6	0.09418826
107	0x3d3672bd	0.044543017
108	0x3de4afa5	0.11166314
109	0x3c80f83c	0.015743367
110	0xbe180a2e	-0.14847633
111	0xbad67f98	-0.001636493
112	0xbd7d77ce	-0.061881833
113	0x3df65489	0.120278426
114	0xbe9e716d	-0.30945912
115	0x3eb116e7	0.34587786
116	0x3dfb4eac	0.12270865
117	0xbe6d5498	-0.23176801
118	0x3d2ebbe5	0.04265966
119	0xbb15c280	-0.0022851527
120	0xbe14dd64	-0.14537579
121	0xbdd48c37	-0.10378306
122	0x3c7ac44b	0.015305589
123	0xbcf7b86b	-0.030239305
124	0x3d00036a	0.031253256
125	0x3e0d3016	0.13787875
126	0xbdc5638f	-0.0963813
127	0xbdb62df2	-0.08895482
128	0x3e1c6bf4	0.15275556
129	0xbddafb7a	-0.106924966
130	0x3e8eb769	0.27874306
131	0x3e3aa36b	0.18226402
132	0xbe3e5684	-0.1858769
133	0x3daf663b	0.08564421
134	0xbe04a545	-0.1295367
135	0x3e148598	0.14504087
136	0x3dca5344	0.09879163
137	0xbd8cd3a1	-0.068763025
138	0xbe7941ac	-0.24341458
139	0xbd9d05d2	-0.07667126
140	0xbe82a568	-0.2551682
141	0xbdbfb6dd	-0.0936105
142	0xbd16502c	-0.03669755
143	0x3bf0220c	0.0073282775
144	0xbe245da1	-0.16051342
145	0x3cebb9d1	0.028775128
146	0x3de2e513	0.11078849
147	0x3d5fe6ba	0.054663397
148	0xbe633947	-0.22189818
149	0xbe31c0d0	-0.17358708
150	0xbc0d80da	-0.008636678
151	0xbd20294a	-0.039101876
152	0x3d2ee191	0.042695586
153	0x3e43647d	0.19081302
154	0xbdc6d11a	-0.09707852
155	0x3de8297d	0.11336038
156	0x3d5bb7dc	0.05364214
157	0xbe397825	-0.18112238
158	0x3d8cf9cd	0.06883583
159	0x3c190e5b	0.0093418015
160	0x3c965fdc	0.018356256
161	0x3a8dd0d4	0.0010819682
162	0x3d02b690	0.031912386
163	0xbeb5a174	-0.3547474
164	0xbd0057a6	-0.031333588
165	0xbd866e63	-0.06564023
166	0xbcaf8f18	-0.021430537
167	0xbda6e3b8	-0.08148903
168	0x3cf2688e	0.029590871
169	0xbdb30381	-0.08740903
170	0xbdfcb863	-0.123398565
171	0xbd802a90	-0.06258118
172	0x3c7da0b2	0.015480207
173	0x3d426cf7	0.0474672
174	0xbd8be35b	-0.06830474
175	0x3c920a71	0.017827244
176	0x3e536dc2	0.20647338
177	0xbe58a55e	-0.21156833
178	0x3e3402d0	0.17579198
179	0x3d7f887f	0.062386032
180	0xbdf6a923	-0.12043979
181	0x3d323e01	0.043516163
182	0x3da36019	0.079773135
183	0x3e097a04	0.13425452
184	0x3caebcd8	0.021330282
185	0x3cc2e537	0.023790939
186	0x3c7897d5	0.015172918
187	0xbe26304f	-0.16229366
188	0x3d67fc58	0.056637138
189	0xbddd813e	-0.108156666
190	0xbcac9710	-0.021068126
191	0x3ca50b75	0.020147065
192	0x3e91ec92	0.285008
193	0xbcfb7c91	-0.030699046
194	0x3e814529	0.25248078
195	0xbbb7e5ec	-0.0056121256
196	0xbd2379a8	-0.039910942
197	0xbdbd5789	-0.09245212
198	0x3dcc2efd	0.099699
199	0xbc59af4b	-0.013286422
200	0xbd748f90	-0.059707224
201	0x3d130292	0.035891123
202	0xbb750a80	-0.0037390292
203	0xbb82a8e0	-0.0039874166
204	0x3e10eed8	0.14153612
205	0x3db6b7ef	0.08921801
206	0x3c9b3144	0.01894439
207	0xbd0c13f5	-0.03419872
208	0xbc867165	-0.016411493
209	0xbdea709a	-0.11447258
210	0x3dbc8de3	0.0920675
211	0x3e7938d9	0.24338092
212	0x3e11a663	0.14223628
213	0x3db174b0	0.086648345
214	0xbe860d7a	-0.26182157
215	0x3c83e62e	0.01610097
216	0x3e37b943	0.17941765
217	0xbe69d1a9	-0.22833885
218	0x3e0c9f0f	0.13732551
219	0xbdf8a094	-0.12140003
220	0xbda402f5	-0.080083765
221	0xbd92ada0	-0.071620226
222	0x3d4fe0c1	0.05075145
223	0xbd31c892	-0.04340417
224	0x3e1433db	0.14472906
225	0xbc108f0b	-0.008823167
226	0xbdc30b32	-0.0952362
227	0xbd3cbe3c	-0.04607986
228	0x3dabdb58	0.08391446
229	0xbe015105	-0.12628563
230	0x3c39d300	0.01134181
231	0x3cb81357	0.02247016
232	0x3e62cacc	0.22147673
233	0x3df85fe8	0.12127668
234	0x3dc1cf3d	0.09463356
235	0xbd9a5926	-0.07536535
236	0xbc01f3d5	-0.007931669
237	0xbd88e343	-0.06683972
238	0x3e524324	0.20533425
239	0xbd2082b5	-0.039187152
240	0x3c58991a	0.013220096
241	0xbe57f1c5	-0.21088322
242	0xbdbd02b6	-0.09229033
243	0x3c9101ca	0.017701048
244	0x3e5512d2	0.2080796
245	0xbdd02434	-0.10163155
246	0xbd1f64ad	-0.03891437
247	0x3c81b21b	0.015831998
248	0xbd4cc27b	-0.04999016
249	0x3d7a582c	0.061119244
250	0xbdb78b22	-0.08962084
251	0xbd55f66e	-0.052236967
252	0xbd5fb22c	-0.054613277
253	0xbe3b930d	-0.18317814
254	0xbdcd412a	-0.10022195
255	0x3d171ffe	0.036895745

fc3.bias f4 [10]
0	0xbe38f794	-0.18063194
1	0xbec07189	-0.3758662
2	0x3e235d21	0.15953495
3	0x3e859c77	0.26095936
4	0x3ec6d5e5	0.38835064
5	0xbe652036	-0.22375569
6	0x3e60fd43	0.21971612
7	0xbeebb6ef	-0.46038005
8	0x3ead1c8e	0.33810848
9	0xbea6c1ad	-0.32569638
